data.pth (torch, 5399 bytes, 6 tensors)

l1.weight f4 [8, 53]
0	0x3ed9bcdc	0.425269
1	0x3e0d1057	0.13775764
2	0xbf08cce0	-0.53437614
3	0x3e86c074	0.26318705
4	0xbe455c11	-0.19273402
5	0xbea02a3e	-0.31282228
6	0x3e868350	0.26272058
7	0x3e70119c	0.23444217
8	0x3f8cc0f0	1.099638
9	0xbe25cc7a	-0.16191283
10	0xbf7367d8	-0.9508033
11	0xbea77a96	-0.32710713
12	0x3f077641	0.52914816
13	0xbeb9827c	-0.36232364
14	0xbe9b4b3d	-0.3033084
15	0xbe109a7d	-0.14121433
16	0x3f121d6a	0.5707613
17	0x3f86b777	1.0524739
18	0xbe6aa66f	-0.22915052
19	0x3f84164c	1.0319304
20	0xbf254a2e	-0.64566314
21	0xbe6d65fc	-0.23183435
22	0xbf2387bb	-0.63878983
23	0x3ed01701	0.4064255
24	0xbf27f3ef	-0.6560659
25	0xbf2ed5ba	-0.6829487
26	0xbe28c5d0	-0.1648171
27	0xbddd477c	-0.1080465
28	0xbd63c594	-0.055608347
29	0x3df3ee72	0.11910714
30	0x3efb7708	0.4911425
31	0xbda4a18e	-0.080386266
32	0x3ead8f23	0.33898267
33	0xbe6fe8eb	-0.23428695
34	0x3ec03e8a	0.37547714
35	0x3ea8bc7d	0.32956305
36	0xbe176729	-0.14785446
37	0x3ec1bd5d	0.37839785
38	0x3d1c97d5	0.038230736
39	0x3ee0780c	0.43841588
40	0x3f02a2f1	0.5102988
41	0x3f85a0b8	1.0439672
42	0x3f11a409	0.5689092
43	0x3eed5a3a	0.463579
44	0x3f07f745	0.5311168
45	0xbe9f9910	-0.31171465
46	0xbe2be969	-0.16788258
47	0x3ef0d322	0.47036082
48	0x3f111347	0.5667004
49	0xbedf0feb	-0.43566832
50	0x3e97c1bd	0.29639998
51	0x3ef09c66	0.46994323
52	0xbe1be416	-0.15223727
53	0xbe576f95	-0.21038659
54	0xbd22f37f	-0.039782997
55	0xbcf0fe9e	-0.029418286
56	0x3ec26e15	0.3797461
57	0x3f3bd104	0.7336581
58	0x3ec94322	0.3930903
59	0x3e42619e	0.1898255
60	0xbe188b37	-0.14896856
61	0xbf0af7df	-0.5428447
62	0x3f272ab1	0.65299517
63	0x3f4b426b	0.7939822
64	0x3e9569d2	0.29182297
65	0x3f0689f8	0.52554274
66	0xbd2a91fd	-0.04164313
67	0x3f6c8602	0.9239198
68	0x3f176a1e	0.59146297
69	0xbd3aad13	-0.045575213
70	0x3fa771a5	1.3081557
71	0x3e9644da	0.29349405
72	0xbf0afe45	-0.54294235
73	0x3f15e7b9	0.58556706
74	0x3f6a7408	0.915833
75	0x3f0fdfbb	0.5620076
76	0xbe283955	-0.1642812
77	0x3f169453	0.58820075
78	0x3ee59e66	0.4484741
79	0x3e9e0217	0.3086097
80	0x3f2ff6a4	0.6873572
81	0x3f31c2b0	0.69437695
82	0x3e935d99	0.28782347
83	0xbf05aff4	-0.5222161
84	0x3f187f48	0.59569216
85	0xbe3013ae	-0.17195007
86	0x3ebe1d88	0.37131906
87	0xbe5ff0e5	-0.21869238
88	0xbc3ff3c6	-0.011715835
89	0x3f20f327	0.6287102
90	0xbeeab995	-0.45844713
91	0x3f0ea325	0.5571769
92	0xbec476af	-0.38371798
93	0xbeb71eb0	-0.357656
94	0xbf0af68a	-0.5428244
95	0xbf0af75c	-0.5428369
96	0xbe2c59e5	-0.16831167
97	0xbf08c991	-0.53432566
98	0x3e8f0094	0.2793013
99	0x3f510d08	0.8166051
100	0xbe50fa52	-0.2040799
101	0xbf32ff67	-0.69920963
102	0xbf1c2102	-0.60987866
103	0xbeb8287b	-0.35968384
104	0x3eb05d3a	0.34446126
105	0x3eac9cf6	0.33713502
106	0x3e8e7230	0.27821493
107	0xbe71b5e8	-0.23604548
108	0x3ccd9435	0.025095085
109	0xbe2755cb	-0.16341321
110	0x3b2078ab	0.0024485986
111	0x3eee1d3b	0.46506676
112	0x3e99be33	0.30027923
113	0x3ebfdf24	0.3747493
114	0x3f467ecc	0.77537227
115	0xbd88419b	-0.06653138
116	0x3f174ab1	0.59098345
117	0x3edafdef	0.4277186
118	0x3ee06e69	0.43834236
119	0xbebfb34a	-0.37441474
120	0x3ef6a419	0.48172072
121	0xbe4a1fe1	-0.19738723
122	0x3f68805a	0.9082085
123	0x3f7d7547	0.99007076
124	0x3e80010b	0.25000796
125	0x3f797cb9	0.97455937
126	0x3edf5ef9	0.43627146
127	0xbf0e1e4d	-0.55514985
128	0x3eeac921	0.45856574
129	0x3e6a67bf	0.22891138
130	0x3ed076f4	0.40715754
131	0x3ea21f79	0.31664637
132	0x3e62d393	0.22151022
133	0xbe4b8010	-0.1987307
134	0xbe8a2a81	-0.26985553
135	0x3edf50fd	0.43616477
136	0x3f17b2ff	0.592575
137	0xbe35a623	-0.17739157
138	0x3e7ad20f	0.24494193
139	0x3e898a1d	0.26863185
140	0x3e947d6f	0.29001948
141	0x3e46d511	0.19417216
142	0xbe4767f0	-0.19473243
143	0xbf242130	-0.6411314
144	0xbf171b16	-0.59025705
145	0x3e735e9e	0.23766562
146	0x3efb7652	0.4911371
147	0xbf5fa879	-0.87366444
148	0x3f169a8c	0.5882957
149	0x3e89dc25	0.2692577
150	0x3e541484	0.20710951
151	0x3efb92e0	0.49135494
152	0x3da2289f	0.07917904
153	0x3e6344b9	0.22194184
154	0x3f8e4e8b	1.111772
155	0xbf3539f9	-0.70791584
156	0xbca97866	-0.020687293
157	0x3e6fd6a4	0.23421723
158	0x3f512f4e	0.81712806
159	0xbea16148	-0.31519532
160	0x3e95b626	0.2924053
161	0xbea21f55	-0.3166453
162	0x3f153dae	0.5829724
163	0x3d2b737d	0.041858185
164	0x3f05818e	0.5215081
165	0x3f02edeb	0.51144284
166	0xbe030036	-0.12793049
167	0x3d3832cd	0.044970322
168	0x3e96afe3	0.29431066
169	0xbf427eb9	-0.75974613
170	0x3f096be4	0.53680253
171	0x3e22ca12	0.15897396
172	0x3da397de	0.07987951
173	0xbeb6b19b	-0.35682377
174	0x3e6834c8	0.22676384
175	0xbe40e80e	-0.18838522
176	0x3f556075	0.83350307
177	0x3eed58d1	0.46356824
178	0x3de85d39	0.11345906
179	0x3daedd26	0.085382745
180	0x3f034ac0	0.51285934
181	0x3f419181	0.75612646
182	0xbd594386	-0.05304291
183	0x3f259972	0.64687264
184	0x3f425090	0.7590418
185	0x3f559dec	0.83444095
186	0x3dd13bf2	0.10216512
187	0x3e83cbd0	0.25741434
188	0x3eb4adf4	0.35288966
189	0x3e195b1d	0.14976163
190	0x3dd3e1b6	0.10345785
191	0xbdde9abd	-0.10869358
192	0xbdbfacef	-0.09359156
193	0x3d163ea0	0.036680818
194	0x3f0d1df2	0.5512382
195	0x3e67b267	0.22626649
196	0xbef38657	-0.4756343
197	0x3eda1213	0.42591915
198	0x3fa2de66	1.2724121
199	0x3d8eb58c	0.06968221
200	0xbef7face	-0.48433536
201	0xbefe9010	-0.49719286
202	0xbdcafac7	-0.09911113
203	0xbe838ee2	-0.25694948
204	0x3ed64d30	0.41855764
205	0x3e813ec9	0.25243214
206	0x3f4ca9c8	0.79946566
207	0xbf1232c6	-0.57108724
208	0xbe91875d	-0.28423586
209	0x3f0d81cd	0.55276185
210	0xbec8d8f1	-0.39228013
211	0xbe15a5e0	-0.14614058
212	0xbe5f76da	-0.21822682
213	0x3f545fa4	0.82958436
214	0xbf501d8d	-0.8129509
215	0x3e02a130	0.127568
216	0x3eec60ac	0.46167505
217	0xbe41a4f9	-0.18910588
218	0x3e28aa0e	0.1647112
219	0xbe5de013	-0.21667509
220	0xbf056d06	-0.5211948
221	0x3f26e57a	0.65193903
222	0x3f3e5dd4	0.7436192
223	0xbe670d82	-0.22563747
224	0x3f4b348c	0.79377055
225	0xbddeade4	-0.10873011
226	0x3f0ee268	0.5581422
227	0x3f16f610	0.5896921
228	0x3e2e4dd1	0.17021872
229	0xbf63546b	-0.88800687
230	0xbe9feba5	-0.3123447
231	0xbec84e67	-0.39122316
232	0x3eecb982	0.4623528
233	0x3ecc5543	0.399088
234	0xbf09b81d	-0.5379656
235	0xbd7c5d19	-0.061612222
236	0xbf09b375	-0.53789455
237	0xbf09b646	-0.5379375
238	0xbece8344	-0.40334523
239	0x3ef9acac	0.4876455
240	0x3f04071b	0.5157334
241	0xbde74bee	-0.11293779
242	0xbe0fcca9	-0.14042915
243	0x3f0e64b0	0.55622387
244	0xbe6fb34e	-0.23408243
245	0x3e587fd0	0.21142507
246	0xbe178bb0	-0.1479938
247	0x3ced60e0	0.028976858
248	0x3ef9f69c	0.4882096
249	0x3f6d15f3	0.92611617
250	0x3eaed241	0.34144786
251	0xbf5932c1	-0.8484307
252	0xbe19cfc9	-0.1502067
253	0x3f8374ab	1.0269979
254	0xbe31cc0a	-0.17362991
255	0xbdc06d17	-0.09395807

l1.bias f4 [8]
0	0x3f7854cd	0.97004396
1	0x3f0af2e0	0.5427685
2	0x3f7ff482	0.99982464
3	0x3f19db81	0.6010056
4	0x3f09b186	0.53786504
5	0x3f4a71ef	0.790801
6	0x3f378337	0.7168459
7	0x3f26d87a	0.6517407

l2.weight f4 [8, 8]
0	0xbf97c343	-1.1856464
1	0x3efb0c82	0.4903298
2	0xbe01caca	-0.12675014
3	0xbf71c335	-0.9443849
4	0xbcad8aed	-0.021184409
5	0x3f947060	1.1596794
6	0x3f079fb8	0.52978086
7	0x3e82360d	0.25431862
8	0x3f4cad23	0.79951686
9	0xbd4206d0	-0.04736978
10	0x3f9f8f52	1.2465613
11	0xbea22873	-0.31671485
12	0x3d2d7124	0.042344227
13	0x3f45f63b	0.7732884
14	0xbfcfe72d	-1.6242424
15	0xbf4a644f	-0.7905931
16	0x3fb4dc9e	1.4129827
17	0xbf9934de	-1.1969259
18	0x3f511043	0.8166544
19	0x3b8fd6aa	0.0043896036
20	0x3d8f0219	0.06982822
21	0xbfa4289d	-1.2824894
22	0x3edeae33	0.43492278
23	0xbf57eb5b	-0.843435
24	0x3ea02829	0.3128064
25	0x3c525149	0.012836763
26	0x3fae6a7b	1.3626245
27	0x3f8f076c	1.117414
28	0xbf9db489	-1.232072
29	0x3f15e689	0.58554894
30	0x3fa5be4d	1.29487
31	0x3fca40bf	1.5801009
32	0x3ee1fae5	0.4413673
33	0x3f8ea5e8	1.114438
34	0x3eb72750	0.3577218
35	0x3fbc38e4	1.4704862
36	0x3f01450b	0.50495976
37	0x3fa46794	1.284411
38	0xbf08ff20	-0.5351429
39	0xbf80eec2	-1.0072863
40	0x3f3b0e15	0.7306836
41	0xbf55eae9	-0.8356157
42	0x3e7f9513	0.24959211
43	0xbfd330bf	-1.6499251
44	0x3fcafba8	1.5858049
45	0x3f8a8b21	1.0823709
46	0xbe0cb105	-0.13739403
47	0x3f705799	0.93883663
48	0x3ec5f4e9	0.38663414
49	0x3f98b850	1.1931248
50	0x3f92f78a	1.1481793
51	0xbf89f66b	-1.0778326
52	0x3f491674	0.78549886
53	0x3eb8e50b	0.36112246
54	0x3fd11ee6	1.6337554
55	0xbf93230f	-1.1495074
56	0x3fd963ce	1.6983583
57	0xbef875e1	-0.48527434
58	0x3e6c7529	0.23091568
59	0x3ed79cea	0.42111903
60	0x3f1e773d	0.61900693
61	0xbf9bbb1b	-1.2166475
62	0xbf42f957	-0.7616171
63	0x3f832af2	1.0247481

l2.bias f4 [8]
0	0x3f145604	0.5794375
1	0x3f223b83	0.6337206
2	0x3f0a4fa5	0.5402778
3	0x3f345c40	0.7045326
4	0x3ee14484	0.43997586
5	0x3ee065e3	0.43827733
6	0xbbfacc0c	-0.007653719
7	0x3f4f5b6a	0.8099886

l3.weight f4 [15, 8]
0	0x3e15ca30	0.1462791
1	0x3f580c1c	0.8439348
2	0xbf8ae307	-1.0850533
3	0xbf984f79	-1.1899253
4	0x3ea0c760	0.3140211
5	0x3ea0885c	0.31354034
6	0x3e6981e9	0.22803463
7	0xbfa3f428	-1.2808886
8	0xbfc03a3b	-1.501777
9	0x3e19911d	0.14996763
10	0x3f3ff1c0	0.74978256
11	0xbfdb7b4a	-1.7147
12	0xbced7126	-0.028984617
13	0x3ed1d428	0.40982175
14	0xbf00593e	-0.5013617
15	0x3f3726c2	0.71543515
16	0xbf9d027b	-1.2266382
17	0xbe991902	-0.29901892
18	0xbf99af24	-1.2006574
19	0x3debad5b	0.11507674
20	0x3b352380	0.0027639568
21	0x3e1c7b40	0.15281391
22	0x3ba080e2	0.0048981765
23	0x3e90f59b	0.28312382
24	0x3e7337c0	0.23751736
25	0xbf4c84b5	-0.79889995
26	0xbf00b1c6	-0.5027126
27	0xbe9928c5	-0.29913917
28	0xbe1c116f	-0.15241025
29	0xbecb6aae	-0.39729828
30	0x3f46d4f8	0.77668715
31	0xbfae8e73	-1.3637222
32	0xbfa95353	-1.3228554
33	0x3f90b171	1.1304151
34	0x3f111753	0.56676215
35	0xbc2428c8	-0.010019489
36	0xbed81db9	-0.42210177
37	0xbf460ac4	-0.7736018
38	0xbfb5615d	-1.4170338
39	0x3f1bce85	0.60862
40	0x3c9ed984	0.019390829
41	0xbf664bea	-0.89959586
42	0xbf8b2ba6	-1.0872695
43	0x3f658089	0.89649254
44	0x3e8d55e3	0.2760459
45	0xbfb5a230	-1.4190121
46	0xbe71b9ad	-0.23605986
47	0xbf9bfaea	-1.2185948
48	0xbfd0eb1c	-1.632175
49	0xbfa81483	-1.313126
50	0x3eefd3a7	0.46841165
51	0x3f050db5	0.5197404
52	0x3ee1efed	0.4412836
53	0xbfd9251f	-1.6964453
54	0xbfddc981	-1.7327119
55	0x3f003467	0.5007996
56	0xbf4d21f8	-0.8012996
57	0xbfa16113	-1.260775
58	0x3f390540	0.72273636
59	0x3da209b6	0.079120085
60	0xbfc93e80	-1.5722198
61	0xbe62d05a	-0.22149792
62	0x3ebdbf57	0.37060043
63	0x3e080e87	0.13286792
64	0xbf9a5efc	-1.2060237
65	0xbf7375ab	-0.9510142
66	0xbf56f03a	-0.83960307
67	0xbf9442c6	-1.1582878
68	0x3f6c6e0f	0.92355436
69	0xbf1a45f7	-0.6026301
70	0x3e97977a	0.29607755
71	0xbec5ad6b	-0.3860887
72	0xc0430eb5	-3.0477726
73	0x3f3c1413	0.7346813
74	0xbe85ad15	-0.26108614
75	0xbe518178	-0.20459545
76	0x3f32a33f	0.69780344
77	0xbfcb506e	-1.588392
78	0xbddd5444	-0.10807088
79	0xbd68b42c	-0.05681245
80	0xc0062fbb	-2.0966632
81	0x3e664800	0.22488403
82	0x3eccada2	0.3997622
83	0xbf49397e	-0.7860335
84	0xbeaee29c	-0.34157264
85	0x3eccc4c4	0.3999387
86	0x3ef1aebb	0.4720362
87	0xbebad3b2	-0.36489636
88	0x3ec9d5b3	0.39420852
89	0x3eafde22	0.3434916
90	0xbfa6eb2d	-1.304052
91	0xbed936cb	-0.42424616
92	0x3f0eaa03	0.5572817
93	0x3f282463	0.6568052
94	0xc0010d3f	-2.0164335
95	0xbe7019c1	-0.23447324
96	0x3f9423c7	1.1573418
97	0xbed8f729	-0.42376068
98	0xbf4a6810	-0.79065037
99	0x3e8c6079	0.27417353
100	0xbfe32bad	-1.7747704
101	0x3f07d032	0.53052056
102	0xbf84a4db	-1.036281
103	0xbf1615a1	-0.58626753
104	0xbefb47fa	-0.4907835
105	0xbf6de146	-0.92921865
106	0xbf408cca	-0.7521483
107	0xbef25924	-0.47333634
108	0xbfb7b3b0	-1.4351711
109	0x3f44e09e	0.7690524
110	0xbf5f50a8	-0.87232447
111	0x3f6b7da7	0.91988605
112	0xbf40e966	-0.7535614
113	0xbee4ebcf	-0.44711158
114	0xbfa3424b	-1.2754606
115	0x3f39dcea	0.72602713
116	0xbfa2fd8a	-1.2733624
117	0xbd7ef52f	-0.062245544
118	0xbfb6638a	-1.4249127
119	0x3ea61fa5	0.32446018

l3.bias f4 [15]
0	0xbe254bb0	-0.16142154
1	0xbc2e37b4	-0.010633398
2	0x3dd5cd8a	0.10439594
3	0x3e2eaa98	0.17057264
4	0x3dbd6608	0.092479765
5	0x3ecec43f	0.403841
6	0x3eb0d9dc	0.34541214
7	0x3e91dcd2	0.28488785
8	0x3e37fcc0	0.1796751
9	0xbeb76dfa	-0.35826093
10	0xbf3989dc	-0.7247598
11	0xbd893840	-0.06700182
12	0xbd7b5dee	-0.061368875
13	0x3ea6f70b	0.32610354
14	0xbec0a8aa	-0.3762868
