data.pth (torch, 5591 bytes, 6 tensors)

l1.weight f4 [8, 57]
000000 ba 46 07 3f 4b ae 8a bf 32 d3 81 3c 45 c9 d3 bd
       0.52842295 -1.083444 0.015847776 -0.103411235
000010 b1 53 a9 bd 04 a4 99 bd b3 77 18 3f d4 8b 84 3e
       -0.08267916 -0.075019866 0.59557647 0.2588793
000020 ef f2 99 bd 1b a7 81 3f 17 22 7e be bd 41 d3 3e
       -0.07517039 1.0129122 -0.24817692 0.41261092
000030 0c ba 31 3e 3b c4 43 3e 25 60 0d 3f 92 7b 22 bf
       0.17356128 0.19117825 0.5522483 -0.63469803
000040 9a 7b f7 bd f4 a8 86 be 7a bb c9 3f 3c 91 97 3e
       -0.12084122 -0.26300776 1.5760338 0.29602993
000050 2a ed 88 3f dc ef 07 be 7b 98 e5 3d 88 20 de be
       1.0697377 -0.13275093 0.11210724 -0.43384194
000060 ca 35 fd bd 41 7c 60 3e 2a 48 14 3f a7 27 23 bc
       -0.12363775 0.21922399 0.57922614 -0.009958184
000070 ff d1 27 3e a1 1e 90 3e c4 26 5a be d5 1d 5b be
       0.16388701 0.28148368 -0.2130385 -0.21398099
000080 48 13 3c bd 51 b8 3d 3f 77 34 a1 be df 9a aa 3e
       -0.045916826 0.7410937 -0.3148534 0.33321282
000090 41 15 91 3d 84 fd 86 be 67 0c af 3e db a7 91 be
       0.07084132 -0.26365292 0.3418915 -0.28448376
0000a0 77 26 ee 3e 17 4e 7c be fe df 95 3f 56 37 3e 3f
       0.4651372 -0.24639164 1.1708982 0.74303186
0000b0 b9 d2 2d 3f 17 2f b3 3d ec 2f 8c 3f c7 41 e3 3e
       0.6789966 0.08749216 1.0952125 0.44386122
0000c0 0a c6 14 3e 16 bf 2b 3f 5d d0 de bc 63 8e 1b 3f
       0.14528671 0.6708845 -0.027198965 0.6076414
0000d0 df a5 a5 bd d9 0c f0 3d e7 d2 c4 3e 0d 95 1a 3e
       -0.08088278 0.117212005 0.38442156 0.15095921
0000e0 9e 2b 35 3e 7e 44 57 be 5d 64 33 bf d9 54 68 bd
       0.1769242 -0.21022221 -0.7007502 -0.056721542
0000f0 e3 51 0a bf 69 f0 1d bd 98 da a6 bc 09 d8 e0 3e
       -0.540312 -0.03855935 -0.020367905 0.43914822
000100 ec 90 08 3e 90 b8 a3 3e 67 42 7e 3f e6 ad f8 bd
       0.13336533 0.31976748 0.9932007 -0.121425435
000110 c8 83 76 bf 32 5e 24 3f ff 7e 4e 3e a3 3b 14 3e
       -0.9629483 0.6420623 0.20165633 0.14475875
000120 44 a2 b5 3e dd e8 28 bd 21 5f a9 be b6 fc 59 bf
       0.3547536 -0.0412377 -0.3308039 -0.8515123
000130 d7 2c 29 3f c8 2b 70 3f 9d 7f 28 be f8 a7 70 be
       0.66084045 0.93816805 -0.1645493 -0.23501575
000140 4f ef c2 be 3d 6d ca bd 0b 62 72 3f 2f d3 84 be
       -0.38073203 -0.09884117 0.9468085 -0.2594237
000150 83 4a 57 3f b9 c9 49 3f f5 42 73 3e d4 e6 4f be
       0.8409807 0.7882343 0.23756011 -0.20302898
000160 7d 3b 5f be 88 d5 f8 3e 95 e0 c3 3e 26 bf 45 be
       -0.21800037 0.4860041 0.3825728 -0.19311199
000170 fd c7 82 3b 11 1c 98 3e 02 df 7c 3e e8 a3 8c bd
       0.0039911256 0.29708913 0.24694446 -0.068672
000180 2e 1e 46 be da 01 7e 3e 63 5e ab be 81 a3 62 bf
       -0.1934745 0.24805394 -0.3347045 -0.8853074
000190 ef fe f1 3e 1a 8a a9 3f 71 f4 47 bc 09 1b 06 bf
       0.4726481 1.324527 -0.0122042755 -0.52385
0001a0 f0 3f 93 be cd 8a af bd 4d 5b c5 3e 8a 07 ec 3b
       -0.28759718 -0.08571396 0.3854622 0.007203047
0001b0 24 68 e7 be c9 7f 77 bf 46 1c 23 3e ca 67 b0 be
       -0.4519664 -0.9667936 0.15928754 -0.34454185
0001c0 75 4a da 3c cc 7d 0e 3f 93 66 6d be 41 52 37 bf
       0.026646832 0.556607 -0.2318366 -0.71609885
0001d0 ea 9c 68 bf 12 f8 d4 bd b4 ff a3 3c a9 25 24 3e
       -0.9086443 -0.10398878 0.02001939 0.16029991
0001e0 b4 d3 05 3f b3 10 ab 3e 0d 80 cb 3e 84 32 3b bf
       0.5227616 0.33411178 0.39746132 -0.73123956
0001f0 70 13 c3 bd 1e 25 8a bf 38 e7 00 3f 47 33 03 3f
       -0.09525192 -1.0792577 0.5035281 0.5125012
000200 d8 a1 0f 3f 11 7c 85 3e d6 c9 2d bd 76 6d dd be
       0.5610633 0.26071218 -0.042428814 -0.43247575
000210 bb 20 42 bf 5c 97 e2 3e 22 4c 36 bf 2c e8 8f 3d
       -0.7583119 0.44256103 -0.7120992 0.07026705
000220 ef 70 5f be 5d da 1e bd c5 fc 33 3e 21 91 42 3f
       -0.21820424 -0.038782466 0.17576893 0.760027
000230 a4 f1 91 be f1 27 31 3f f7 60 3a 3f 87 d1 b3 3e
       -0.2850467 0.6920157 0.72804207 0.35120794
000240 dc aa 93 3d e1 17 0d bc 5e fd 0c 3f ec 04 ca be
       0.07210323 -0.00861165 0.5507411 -0.3945688
000250 e0 40 67 bd 20 31 48 3d 48 35 20 3d cc b1 6f 3e
       -0.056458354 0.048874974 0.039113313 0.23407668
000260 ac 71 c7 3e e2 38 02 3d ca 7b 46 3e 97 97 3d be
       0.38953912 0.03179253 0.1938316 -0.18514858
000270 3e 49 6a be e6 5e 90 be 00 47 91 3f 00 2c 04 bd
       -0.22879502 -0.28197402 1.1349792 -0.032268524
000280 67 58 54 bf 8d b6 4a be f5 f5 11 be 6a 9e c4 3e
       -0.8294739 -0.197962 -0.14253981 0.3840211
000290 5d 72 8a bd f4 ce e9 be 9a 40 74 bf 01 a7 1a 3e
       -0.06760094 -0.45665705 -0.95411074 0.1510277
0002a0 0f 42 1e bf ac 96 00 3d ec df 2b 3e 5d 01 8f be
       -0.6181955 0.031393692 0.16784638 -0.27930728
0002b0 dd 67 35 bf e1 f3 c8 3f d3 00 c7 bd 96 d1 ba bc
       -0.7086161 1.5699426 -0.09716954 -0.022805016
0002c0 7e 60 0a be 0e 0e 29 be 0e 30 ae 3e 25 7b 3a be
       -0.13513371 -0.16509268 0.34021038 -0.18211038
0002d0 9b 14 51 3f ca 48 ca be 5f 25 64 be 0e 71 27 be
       0.81672066 -0.3950866 -0.22279881 -0.1635172
0002e0 89 35 cb 3d 0d f2 10 3f 8f 34 4a bf 01 f5 16 be
       0.099223204 0.5661934 -0.7898645 -0.14741899
0002f0 f7 4f c6 3e 1b 36 b0 3f 27 bb ad be 71 62 56 3f
       0.38732883 1.3766512 -0.33931848 0.8374396
000300 bc af c9 bd cb 23 9b be d2 7e 82 bd 94 26 b9 bd
       -0.09847972 -0.30300745 -0.06371845 -0.09040561
000310 0a 51 18 bf 2d c4 34 be 4a ff 0e bf f1 85 19 bf
       -0.59498656 -0.1765296 -0.5585829 -0.59970003
000320 5f ab 1a 3e 0c 49 46 be 94 e0 91 be 95 5a 13 bf
       0.15104435 -0.19363803 -0.28491652 -0.5756009
000330 16 cb 3e 3f eb 98 e5 bc 2f b0 80 3d 6f 36 b1 3d
       0.74528635 -0.028027019 0.06283604 0.086529605
000340 af f7 33 be 1c f8 28 3e 13 34 22 be da 95 f8 3e
       -0.17574953 0.16500896 -0.15840177 0.48551828
000350 64 46 ba bd 5c 13 02 3f 0b 3b 31 3f 71 3f 7d 3f
       -0.09095457 0.5081079 0.6923072 0.9892493
000360 26 38 43 3e 5a 59 79 bf bc 2b a6 be 7a 34 0c 3f
       0.19064388 -0.97401965 -0.32455242 0.5476757
000370 bc a2 70 be 0a 7b c1 bd 1d 2e 9e 3e 97 17 13 3f
       -0.23499578 -0.09447296 0.30894557 0.5745787
000380 58 a6 d0 3f 65 5b 04 3f 3b 43 85 3e f6 d0 a8 be
       1.6300764 0.51701957 0.26027855 -0.32971925
000390 03 79 09 3f 96 d7 d5 be 19 d2 c3 be 96 25 58 3e
       0.53700274 -0.41766042 -0.3824623 0.21108088
0003a0 69 ec 06 be 02 eb a6 3c ee 02 fc 3e 11 8e 92 3d
       -0.13176121 0.020375732 0.49220985 0.07156003
0003b0 7a 1d 99 3e fd b3 c3 be fb 68 c7 3d 92 52 3d bf
       0.299053 -0.38223258 0.0973682 -0.7395412
0003c0 2b 77 00 3f 9b 6a c8 3e db 58 d7 3d 23 18 59 3e
       0.50181836 0.39143834 0.10514995 0.21200614
0003d0 c8 64 05 be 93 33 88 be b2 ca 80 be cf 99 27 3f
       -0.13026726 -0.26601848 -0.25154644 0.6546907
0003e0 16 07 fc be ae c1 60 be 82 8e 58 bd 3f 7b a5 be
       -0.49224156 -0.21948883 -0.05287028 -0.32320592
0003f0 68 68 cb bc a0 e2 3d 3f 37 06 0b 3f 7e ba 56 3f
       -0.024830058 0.7417393 0.5430636 0.83878314

l1.bias f4 [8]
000000 43 99 ad 3f 06 60 69 3f 34 2a 3b 3f e9 8a 82 3f
       1.3562397 0.91162145 0.7311127 1.0198642
000010 f7 ab 8a 3f 46 ae 5a 3f c9 31 28 3f f4 02 4d 3f
       1.083373 0.8542217 0.65700966 0.8008263

l2.weight f4 [8, 8]
000000 77 0e 1b 3e a8 be 1f bf 70 bb c9 3e d5 55 4d 3f
       0.15142237 -0.62400293 0.39400816 0.80209094
000010 b8 56 fd 3d a6 cb 06 bf 6a 49 94 bf c5 48 bd 3f
       0.12370056 -0.5265449 -1.1584904 1.4787832
000020 a0 5c 81 3f b0 28 c6 bf 3f 3b 34 bf a1 96 27 be
       1.0106392 -1.5481167 -0.704029 -0.16366054
000030 fc 0c c9 3f f6 4b 93 be 27 1d 1a be 13 c0 17 3f
       1.5707088 -0.2876889 -0.15050183 0.59277457
000040 2f 13 93 3f 3e a4 7b 3e 18 ad 01 bf 4a e3 b8 3f
       1.1490229 0.24574372 -0.50654745 1.4444363
000050 e9 2c 39 bf 44 24 53 3f ad d6 ea 3f 29 26 8f bf
       -0.7233415 0.8247721 1.8346764 -1.118352
000060 8b ea 98 3e 3e ae 20 3e eb 93 e2 be 24 71 6a bf
       0.29866442 0.15691468 -0.44253477 -0.9157889
000070 d2 6c 19 3f 27 79 cb 3f b4 fb c7 3e 10 79 f4 3f
       0.5993167 1.5896348 0.39059222 1.9099445
000080 da f3 cd 3f 2f df 0f bf fd 4c da bf d5 e7 6f 3f
       1.6090043 -0.56199926 -1.7054745 0.9371312
000090 9d ad 21 3f af 75 82 3c 9f 88 88 bf 81 d8 c4 3e
       0.6315554 0.015925257 -1.0666693 0.3844643
0000a0 0f e2 82 3f 38 3e d9 3f 21 4b b0 3f d5 1b b8 3f
       1.0225238 1.6972113 1.3772928 1.4383494
0000b0 29 17 23 3f a5 86 d7 bf 1e 82 70 bf f3 b9 73 3f
       0.63707215 -1.6837965 -0.93948543 0.9520561
0000c0 c1 fe e2 3e 23 22 ce 3f 21 ae f4 3f 89 01 ac be
       0.44334987 1.6104168 1.911564 -0.3359492
0000d0 d4 44 fc 3f d9 dc 18 bd ef 14 cb 3f f0 91 17 bf
       1.9708505 -0.03731999 1.5865763 -0.5920706
0000e0 15 a6 90 bd a9 ea a7 bc 5a 58 76 be 0d 5d b4 bd
       -0.07062928 -0.020497637 -0.24057141 -0.088068105
0000f0 50 e1 51 be 38 27 6b be 63 ff 24 3e b3 bb 79 3e
       -0.20496106 -0.2296418 0.16113047 0.24388008

l2.bias f4 [8]
000000 23 c9 e7 bd ca f3 ce be 71 0b 91 3f 73 f4 b3 3e
       -0.11317661 -0.4042037 1.1331617 0.35147437
000010 cd 83 71 3f c5 c0 d0 3d c5 2f 91 3e 10 d6 04 be
       0.9434174 0.10193018 0.28356758 -0.12972283

l3.weight f4 [15, 8]
000000 73 71 89 3d 0c 5d 04 3e d8 6a dd 3d 27 3e ff 3e
       0.06711092 0.1292612 0.108113945 0.49852106
000010 98 21 e8 3e 4b c1 3c bf fa e3 0c c0 65 e8 75 be
       0.4533813 -0.7373244 -2.2014146 -0.24014433
000020 93 8a db bf 07 11 ab bf 63 45 8e 3b a2 70 1a c0
       -1.7151664 -1.3364571 0.0043417676 -2.4131246
000030 d8 21 3e bf a7 9f 37 3f 2f cd de 3e de 5c 20 be
       -0.7427039 0.71727985 0.43515918 -0.15660426
000040 2c a1 82 be 0e 6b 97 bf 19 99 b2 bf cc c0 d2 3e
       -0.2551359 -1.1829545 -1.3952972 0.41162717
000050 40 90 d5 be 79 fe 34 3e 1f b0 03 3e 60 76 aa be
       -0.41711617 0.17675199 0.12860154 -0.33293438
000060 01 9e c9 bf 40 02 cb bf 19 e1 6c be e5 cb 8d 3e
       -1.5751344 -1.5860062 -0.23132743 0.27694622
000070 d4 81 82 bf a0 b6 e8 bf e2 8c 0f 3f ee f0 04 be
       -1.019587 -1.8180733 0.56074345 -0.12982532
000080 cd 42 13 c0 5f f6 14 c0 4f 3a c2 3e d7 e9 9f ba
       -2.3009522 -2.3275373 0.3793511 -0.0012200427
000090 2c d2 54 bd 41 f4 94 3e 37 d4 19 bf 98 b0 ab be
       -0.051958248 0.290926 -0.6008944 -0.33533168
0000a0 67 33 0e c0 d2 42 50 bf 87 40 12 be 96 65 1c bf
       -2.2218874 -0.8135196 -0.14282428 -0.6109251
0000b0 01 b9 f1 bf ba c1 8c 3d 06 62 3e 3f f6 7d 5a 3e
       -1.8884584 0.06872888 0.7436832 0.21337113
0000c0 b2 67 34 3e ff a8 f3 3e 9f ba 8b bf 08 03 14 bf
       0.17617682 0.4758987 -1.0916327 -0.57817125
0000d0 c5 4e da 3e 8f 7b 46 bb 33 91 50 bf e8 75 a9 be
       0.4263822 -0.003028605 -0.81471556 -0.33097768
0000e0 2a 26 fc bf 7c 3b 08 3f 65 e0 0d bf 7f f0 e7 be
       -1.9699147 0.53215766 -0.55420524 -0.4530067
0000f0 cd 9b 07 3f 23 82 38 bf c0 e8 0c 3e a5 3c 79 3e
       0.5297211 -0.7207357 0.13760662 0.2433954
000100 bd 70 2f 3f ed 95 91 3d 5b 4a 88 bf 28 fa 43 3f
       0.685314 0.07108674 -1.0647691 0.76553583
000110 0f b8 9a bf cf 8d 87 bf 6b 47 7e bf 55 a6 97 be
       -1.208742 -1.0590152 -0.99327725 -0.2961909
000120 1c 43 83 bf 00 e7 aa 3d f1 49 17 3f 98 af fd bf
       -1.0254855 0.08344841 0.590972 -1.9819212
000130 9f a9 34 3f 72 91 b4 bb e8 4a 67 bf c2 cf 06 3d
       0.7057132 -0.0055105025 -0.9034867 0.032912977
000140 22 c5 27 c0 c6 42 1b c0 91 cd 73 3f 0b 54 33 bd
       -2.621407 -2.4259505 0.95235544 -0.04378132
000150 13 a9 6c 3f 24 91 f0 bf cc 97 ce bf cd ec a4 3d
       0.92445487 -1.8794293 -1.6140075 0.08052979
000160 d9 5c 04 c0 95 e0 a3 bf 4a ca 82 3f 8f 56 1f bf
       -2.068167 -1.2802912 1.0217984 -0.6224145
000170 6f b4 ca bf 2b e9 8c bf 8c 41 51 bd 89 ee 85 3e
       -1.5836314 -1.1008657 -0.0510879 0.2615855
000180 e7 80 a0 3d 8f 96 0b c0 21 77 a5 3e 08 76 8d bf
       0.07837086 -2.1810644 0.3231745 -1.1051645
000190 18 dd 1a 3f db 9a 26 3f ea 63 2e c0 e0 ed 14 be
       0.6049361 0.6508004 -2.7248483 -0.14543867
0001a0 dc a4 05 3f 66 fc 23 c0 bf 83 b9 3d 19 cb a3 bf
       0.5220468 -2.5622802 0.09058332 -1.2796355
0001b0 9e 44 d0 be 64 3f 17 3f 91 8b eb be 35 28 8e 3e
       -0.4067735 0.590811 -0.46004918 0.2776505
0001c0 37 68 2d 3f e0 0a 58 3e f9 42 8f bd 71 7a 58 bf
       0.67737144 0.21097898 -0.06995196 -0.8456183
0001d0 88 13 4c 3e b0 4e 66 3e 20 87 13 c0 cf 74 0d 3d
       0.19929326 0.22490954 -2.3051224 0.034535225

l3.bias f4 [15]
000000 7b 9b 8c 3e 73 18 20 bf 85 25 68 3d 02 ae c6 3c
       0.27462372 -0.62537307 0.056676406 0.024252895
000010 07 b4 c3 be dc 28 23 3e da fe 1f bf a4 1d 8d bd
       -0.38223287 0.15933555 -0.6249825 -0.06890419
000020 e2 12 48 be e0 78 83 be c0 d5 fc 3e 00 cb 18 3f
       -0.19538453 -0.25678158 0.49381828 0.59684753
000030 42 29 11 3e 6b 66 d5 be c3 f2 51 bf
       0.14175895 -0.416797 -0.8201105
