data.pth (torch, 5399 bytes, 6 tensors)

l1.weight f4 [8, 53]
000000 11 37 1f 3e e3 01 a4 3e bf 5e f0 be 52 ab 0e 3f
       0.1554835 0.3203269 -0.46947286 0.55730164
000010 d9 c2 0c 3f 2d 9d ff 3e c7 3a 31 be 41 38 e8 be
       0.54984814 0.49924603 -0.17307578 -0.45355418
000020 18 85 8d 3e 69 f2 63 3f dc 2a 3d bf bc 4e 02 3f
       0.27640605 0.89041764 -0.73893523 0.5090139
000030 01 9e f8 3e 56 11 de bd 61 e0 58 3f 4f cb 03 3f
       0.48558047 -0.1084315 0.84717375 0.514821
000040 df de 5b 3e da db 49 bf 1f 94 1f 3f 47 8f a5 3e
       0.21471737 -0.7885109 0.6233539 0.32335874
000050 89 92 ef bd 5f b3 f5 3e ce d5 3b 3f 20 b4 7c bd
       -0.11697871 0.47988412 0.73373115 -0.061695218
000060 23 f3 46 3f cc d7 40 3f c5 ef 3d 3f d2 35 21 3f
       0.7771475 0.7532928 0.74193984 0.6297275
000070 6d a6 d1 3e c1 e4 cc 3e 9e 3a 29 bc b2 5f 22 3f
       0.40947285 0.40018275 -0.010328917 0.6342727
000080 78 c8 c6 3e 10 60 16 3f 79 12 0b bf d1 f7 c4 3e
       0.3882482 0.5874033 -0.5432506 0.3847032
000090 bf 5a 12 3f e3 00 26 bf 7a 42 c5 3e 63 31 82 3f
       0.5716972 -0.64845103 0.3852728 1.0171322
0000a0 11 34 1d 3e dd 91 5b bf 97 10 4e be 81 65 2d be
       0.15351893 -0.85769445 -0.20123516 -0.16933252
0000b0 d8 f8 c1 be ed 70 22 3f e0 86 1d 3f 4e 23 0c 3f
       -0.37885165 0.6345356 0.6153393 0.5474137
0000c0 21 ba 3d 3e 74 c8 fb be 46 53 bd 3e 89 6d 17 3f
       0.18528034 -0.4917637 0.36977595 0.5915151
0000d0 27 3e ea 3e 3d 87 94 be b8 a7 56 bf d4 08 29 bf
       0.45750543 -0.2900943 -0.8384967 -0.66029096
0000e0 f1 b2 fb 3e c8 83 35 3f e9 2a df be 3a 7c fa be
       0.4915996 0.7090421 -0.43587425 -0.48922902
0000f0 fd 83 ca 3e e0 9e bf bd 70 93 69 3f 94 d9 68 bf
       0.39553824 -0.09356475 0.91240597 -0.90957
000100 87 c8 fc bd 51 53 86 3f c4 87 2d 3f 5f 44 7c 3f
       -0.12342935 1.0494176 0.67785287 0.98541826
000110 fa 2e 21 3f 08 86 ee be 0b ae cb 3e 3b 97 32 be
       0.62962306 -0.46586633 0.39781222 -0.17440502
000120 09 46 b9 bd 41 6a 24 bf 2d dd 1c 3f 60 dc a5 be
       -0.09046561 -0.6422463 0.6127499 -0.32394695
000130 9f 1e 7b be ce 0f bb be 33 6b 9f be 25 4e 98 3e
       -0.245234 -0.36535496 -0.31136474 0.2974712
000140 a2 3b 24 3f 23 0a 09 3f 56 11 bd 3e 8b 57 bc bd
       0.6415349 0.5353109 0.3692729 -0.09196385
000150 e1 75 d5 3e dc a6 dd bd dd 2f 6a 3f 7f a5 a2 3e
       0.41691497 -0.108228415 0.91479284 0.31766888
000160 1f b9 29 3f b4 c7 04 3f 0b 77 0e 3f 14 23 20 3f
       0.662981 0.5186722 0.55650395 0.62553525
000170 d7 ec 59 3f eb 2e f1 bd d0 11 6b bf 02 20 44 bf
       0.85127014 -0.11776527 -0.91824055 -0.7661134
000180 34 a9 5c be e6 ce a2 be f3 3a ce be d9 3e 23 3f
       -0.21548921 -0.31798476 -0.4027935 0.6376777
000190 57 97 0e 3f 48 be 89 bf 28 45 3f 3e de 96 9d 3d
       0.55699676 -1.0761194 0.18678725 0.07694791
0001a0 a6 7c 3b 3f 0c 0a 9e 3e 97 7f 55 3f eb 7a 25 3f
       0.73237073 0.3086704 0.8339781 0.6464068
0001b0 cc 01 81 3f 1b 43 b6 3e d1 e9 94 3e 93 5b 96 3e
       1.0078673 0.35598072 0.29084638 0.2936674
0001c0 ce 3f a8 3e 73 2b 0e bf 8f 2c 01 bf 7e 5c 85 3e
       0.3286118 -0.5553505 -0.50458616 0.26047128
0001d0 04 0a 16 be 2f bd a0 3e 37 1c dc be 57 51 d9 be
       -0.14652258 0.31394336 -0.42990276 -0.4244487
0001e0 77 5b 01 3f ea 7d b5 3d 4a 87 53 3f 2c c8 d1 be
       0.5053019 0.08861907 0.8262831 -0.40973032
0001f0 62 dc d8 3e 8f d6 fd be ae b1 ca 3d fa d1 1d be
       0.4235564 -0.49577758 0.09897171 -0.15412131
000200 7e 71 f2 3e 49 a7 0f 3f 0c e5 16 3f 31 e4 f8 3e
       0.47352213 0.5611463 0.5894325 0.48611596
000210 7d df f2 3d 8e 8a 7f 3e 06 fa 30 3e a6 1b 1a 3d
       0.11859033 0.24955198 0.17282876 0.037624024
000220 f0 31 dd be b2 63 09 3c 82 9f f8 3e d3 a0 ac be
       -0.43202162 0.008385586 0.48559195 -0.3371645
000230 5b b3 d8 be e0 90 a8 bc f4 91 5c 3e b3 a5 2f bf
       -0.42324337 -0.020576894 0.21540052 -0.6861221
000240 77 04 b6 be cb eb e6 be 3e f2 e9 be bd ed c0 be
       -0.3555028 -0.4510177 -0.4569263 -0.3768138
000250 fc 70 a2 3f 87 1c 0f 3f b6 70 04 bd f9 a8 be 3e
       1.269073 0.55902904 -0.032334052 0.3723829
000260 58 83 e5 3e 4f b2 54 be 02 16 e8 3e d5 51 15 3f
       0.4482677 -0.20771144 0.4532929 0.5832799
000270 0d bc 28 be 9f 47 03 3e fb 04 0c 3f db 08 63 be
       -0.16477986 0.1282029 0.546951 -0.22171347
000280 62 0d 67 3e f6 1c 90 3e f9 c9 29 3f f6 49 2d be
       0.22563699 0.28147095 0.6632381 -0.16922745
000290 76 03 49 be 68 81 e9 3e 58 46 d6 3e 43 86 40 3f
       -0.19630226 0.45606542 0.41850543 0.7520487
0002a0 5d 78 50 be e3 03 83 3f 3b c2 54 be b3 9b 52 3f
       -0.20358415 1.0235561 -0.20777218 0.8226883
0002b0 e4 e8 80 3e 10 40 00 bf c4 b0 a1 3e a3 42 67 bd
       0.2517768 -0.5009775 0.31580174 -0.056460034
0002c0 c7 f5 68 3f 1a be 46 be a1 dd 50 3f cc 9c 57 3e
       0.91000026 -0.19408455 0.8158818 0.21055907
0002d0 e9 8c 29 3f a3 9f b6 be af e4 61 be cb 02 9c be
       0.66230637 -0.35668668 -0.22059892 -0.3047088
0002e0 46 f7 ba be c8 7c aa be 7f be 3e 3e 3a 22 95 3e
       -0.3651678 -0.33298326 0.18627356 0.29127675
0002f0 ca 40 fd 3d 1a c5 32 3f 50 d7 7c 3e f9 55 16 3e
       0.12365873 0.69832003 0.2469151 0.14681233
000300 80 a7 03 be f4 91 0c 3f 4b 30 a6 3e 0c fb 40 3e
       -0.12856865 0.54910207 0.3245872 0.18845767
000310 38 85 38 3f 3f 7e 2f 3f 9d ac 56 be a4 b6 37 3f
       0.72078276 0.6855201 -0.20964284 0.7176306
000320 0b 31 7c 3f 82 91 26 bf 32 f2 ab be 74 1a 0c 3f
       0.98512334 -0.6506578 -0.33583218 0.54727864
000330 54 77 70 be 8f 20 15 be 59 92 e2 bd 9f f9 ec 3d
       -0.2348302 -0.14563201 -0.1106307 0.11571049
000340 1d 4e 22 3f ec 54 28 be ed 12 ad 3e 0a 26 77 be
       0.6340044 -0.16438645 0.33803502 -0.24135605
000350 df 3d eb 3e 95 94 98 be 51 cf 8f 3f 97 38 81 3e
       0.4594564 -0.2980086 1.1235143 0.25238487
000360 31 61 3e bd e0 fe 14 be 24 5f 62 3d 13 b6 9c 3e
       -0.046479408 -0.14550352 0.055266514 0.30607662
000370 15 65 16 bf 44 ee da bd 37 38 60 3f 74 4f a5 be
       -0.5874799 -0.10689977 0.8758578 -0.3228718
000380 ea b1 c3 3e 3a e3 ef 3e 9d 6f 14 bf 2b 23 c8 3c
       0.38221675 0.46853048 -0.5798281 0.024430832
000390 22 63 04 be 1d ec 55 3f e9 e6 5a be 16 67 16 bf
       -0.12928441 0.83563405 -0.21377148 -0.58751047
0003a0 44 3a b1 3e a6 3e 7e be 67 e4 04 bf f7 e2 e6 3e
       0.34614766 -0.24828586 -0.51911014 0.45095035
0003b0 cd 77 13 bf 12 43 12 bf 30 22 ff bd 3a 75 2a be
       -0.57604676 -0.5713359 -0.124576926 -0.16646281
0003c0 d1 c5 f9 bd 7b 01 b1 3d cd 61 b6 be ea 83 de bd
       -0.121959336 0.086428605 -0.3562149 -0.10865004
0003d0 ca 84 81 3e 38 8b b9 3c d4 61 c4 3e e7 df 95 3e
       0.25296623 0.022649392 0.38355887 0.29272386
0003e0 df 68 05 be 39 f4 33 3f f5 cb 68 be 42 f5 ef 3e
       -0.13028286 0.7029453 -0.22734053 0.46866804
0003f0 f1 a3 a8 be 0a cd 36 3f a2 15 4e 3f 5a 77 aa 3e
       -0.32937577 0.71406615 0.8050176 0.33294183

l1.bias f4 [8]
000000 f7 05 76 3f c5 24 40 3f 6d 63 08 3f 18 2f 47 3f
       0.9610285 0.75056106 0.5327671 0.77806234
000010 a7 63 16 3f 33 30 85 3f 86 1e 6f 3f 1c 94 68 3f
       0.5874581 1.0405334 0.9340595 0.90850997

l2.weight f4 [8, 8]
000000 90 d1 81 bf 97 1c 1e 3f 7b a9 55 bf 72 39 99 3f
       -1.0142078 0.61762375 -0.8346173 1.1970656
000010 50 f5 d2 3f aa d1 ea 3d 06 c3 8f bf c9 c9 87 3f
       1.6481113 0.114657715 -1.1231391 1.0608455
000020 76 dc b2 3f 80 91 8f 3f 04 9c 89 bf d5 6c 3b 3f
       1.3973529 1.1216278 -1.0750737 0.7321294
000030 48 30 f9 bd 68 59 5c bf fa da 00 40 0f 12 9f 3f
       -0.12167412 -0.86073923 2.0133653 1.2427386
000040 2a db db bc 0d 48 b5 bf ee f5 a1 3f 7b b0 ec 3e
       -0.026837904 -1.4162613 1.2653177 0.46228394
000050 ed 78 0c 3f 62 97 a9 3f fc 1c 8e 3f 2e 1f 6a 3e
       0.5487202 1.3249323 1.1102595 0.22863457
000060 20 5d d8 bd 5d 18 63 bf fc eb 81 bd d8 f7 13 3f
       -0.10564637 -0.8870905 -0.063438386 0.57800055
000070 13 ce b4 be cc 21 9f 3f 75 75 5c 3f 7f bb 16 3e
       -0.35313472 1.2432189 0.86116725 0.14719962
000080 c4 08 3b 3e 16 22 ab 3f 14 3e 38 bf a2 fa a1 3f
       0.18265063 1.3369777 -0.71969724 1.2654612
000090 ab d9 ad be 41 c4 cf 3f 67 b4 fb bb ae 67 bf bf
       -0.3395513 1.6231767 -0.0076814177 -1.4953516
0000a0 fd 53 97 3f ea 7f a4 3f 54 48 ce 3d 1d ac 3b bf
       1.1822506 1.2851536 0.10072389 -0.733095
0000b0 80 79 8d bf 39 b0 9b 3f df 81 27 3e 6d 4a 74 3f
       -1.1052704 1.2163154 0.16358136 0.95426065
0000c0 05 97 80 be 3a 50 71 bf d3 09 1b bf bc 83 62 3f
       -0.2511522 -0.9426304 -0.60561866 0.8848226
0000d0 b7 2a 1b be 45 ba 6c 3f f8 cc 19 be 67 bb 88 be
       -0.15153013 0.92471725 -0.15019596 -0.26705477
0000e0 fb a7 91 3f 04 15 28 3f 2b 94 87 3f 7b a5 06 bf
       1.1379389 0.6565707 1.0592092 -0.52596253
0000f0 af 08 aa 3e e5 be e1 3e b4 b7 d1 bf ad 88 c8 3f
       0.3320975 0.44090953 -1.6384187 1.566671

l2.bias f4 [8]
000000 81 27 08 3f d7 f2 08 3f d7 a6 16 3f c2 79 4d 3f
       0.5318528 0.53495544 0.5884833 0.8026391
000010 a7 e8 0e 3e 62 65 fd 3e bf d6 46 3e 0b 1e 19 3f
       0.13955937 0.4949141 0.19417857 0.59811467

l3.weight f4 [15, 8]
000000 d5 0a ed 3e ee ab 2c 3f 4e 75 7e bf a2 50 af 3e
       0.46297327 0.67449844 -0.9939774 0.34241205
000010 35 f1 4a bf 3a 8d a8 bf 7f a6 44 3e ec e4 80 bf
       -0.792743 -1.3168099 0.19204138 -1.0069861
000020 35 e7 0a 3e 37 e4 0b bf ef 4c b7 bd 22 ef 9e 3e
       0.13564761 -0.54645103 -0.08950221 0.3104182
000030 5c cb a5 3e 7f e3 e3 bf dd dc 5f 3f c5 c8 02 c0
       0.32381713 -1.7803801 0.87446386 -2.043504
000040 a7 93 0c bf 32 84 f8 3e d0 1e a4 bf 70 89 53 be
       -0.549128 0.48538357 -1.2821903 -0.20657897
000050 71 fd c8 3e e3 d7 a8 3e c1 76 c0 bf ea f9 f8 be
       0.3925586 0.32977208 -1.5036241 -0.4862817
000060 2b 66 e9 bf 0c c6 1a 3e 09 57 cc bf 80 34 7b bf
       -1.8234304 0.15114611 -1.5964061 -0.98126984
000070 a9 a8 be be e1 a9 2a 3f b2 0f 57 bf 5a e1 21 3f
       -0.37238052 0.66665465 -0.84008324 0.63234484
000080 3d d8 d6 bf 32 64 d5 3e 48 bf 0d bf 98 b9 55 3e
       -1.6784741 0.41678005 -0.5537 0.2087158
000090 97 f3 ac 3e 2f 0d 61 3e 80 ca c1 3e 7f e1 d3 bf
       0.33779594 0.21977685 0.37849808 -1.6553191
0000a0 7d e4 f1 bf 1a 44 00 3e d2 ae c7 be e3 0f 9b 3e
       -1.8897854 0.12525979 -0.39000565 0.30285558
0000b0 7d 43 ca bf 0f 5a 30 3f cd 22 8f bf 03 79 8e 3e
       -1.5801846 0.6888742 -1.1182495 0.278267
0000c0 22 d3 51 bf f7 cc 64 3f 6c b8 dc bf ab 31 9c bf
       -0.8196279 0.8937525 -1.7243781 -1.2202657
0000d0 e6 73 c3 bf a7 e8 b1 3e e1 bd 2f bf 5f 1f e8 3e
       -1.5269744 0.34747812 -0.6864911 0.45336434
0000e0 27 06 b4 bf 13 26 d6 bf 3e 0d 83 3e 44 3d bf bd
       -1.4064378 -1.6730369 0.2559604 -0.09337857
0000f0 2f d6 da bf 9d a1 6a 3e 7f a7 95 bf 4c 82 7d 3f
       -1.7096614 0.22913213 -1.1691741 0.9902694
000100 14 7b d2 bf fa c7 db 3e 4e 5c 27 c0 27 a7 bb bf
       -1.644381 0.42926008 -2.6150088 -1.4660386
000110 a5 1c 23 3f 76 8a 75 3e a4 2f 49 bf 0e e3 d1 3d
       0.63715583 0.239786 -0.7858832 0.10248385
000120 61 a6 79 3e dd 7b 1a bf 66 07 96 bf 01 23 72 3e
       0.24379875 -0.6034525 -1.1721008 0.23646165
000130 86 97 eb 3e d4 87 69 be dc c1 01 bd e9 41 2b be
       0.4601404 -0.2280572 -0.03167902 -0.16724361
000140 e9 57 bd bf a0 5c 88 bf ef 02 e3 3b 03 be b7 3e
       -1.4792453 -1.0653267 0.00692784 0.35887155
000150 e1 cc 0a bc 02 1c 90 3d 68 ce 16 3f b5 c8 9a bd
       -0.0084716985 0.07036592 0.589087 -0.07557813
000160 bf 74 a1 bf 7b 3a 04 3f 9f bf 83 3e d5 5e 06 3f
       -1.2613753 0.51651734 0.25732133 0.5248845
000170 1d 8c 54 bf d6 d6 97 bf d3 63 86 bf 35 54 ab bf
       -0.83026296 -1.1862438 -1.0499214 -1.3385073
000180 3a 51 5a 3e 9a 69 c9 be 16 91 c4 3e 53 49 ac bd
       0.21320048 -0.3933838 0.38391942 -0.08412423
000190 d9 51 c1 bf b5 1c 50 bf e8 da c0 bf 0c e6 1b bf
       -1.5103103 -0.81293803 -1.5066805 -0.608979
0001a0 d4 06 59 3f 58 95 fd 3d b2 a8 05 c0 0d 89 2d bf
       0.84776044 0.12382001 -2.0884213 -0.6778725
0001b0 80 0d f1 3e a8 b6 aa bf 54 ea 0a bf ea e9 4f bf
       0.47080612 -1.3336992 -0.54263806 -0.812163
0001c0 4a d1 c6 bc 8e 64 7f bb 19 36 49 bf 29 70 d4 be
       -0.024269719 -0.0038969847 -0.7859817 -0.4149182
0001d0 fc 69 c1 bf f6 d8 40 be a3 35 00 bf 55 8b 16 3f
       -1.5110469 -0.18832764 -0.50081843 0.58806354

l3.bias f4 [15]
000000 da 69 e6 bd 0c 15 b9 bd 21 dd 5b 3e 80 f2 6d be
       -0.11250658 -0.090372175 0.21471073 -0.23237038
000010 dc 0c 37 be 67 67 b2 3e 35 7e e1 bd 0d 45 cb 3e
       -0.17875999 0.34844515 -0.110104 0.3970112
000020 b7 87 5b be 52 4e c8 bd 94 04 ac be 0e e9 de 3e
       -0.2143849 -0.097805634 -0.33597243 0.43537182
000030 f1 f2 c2 3e 98 8e 86 be ac 0d 27 be
       0.38075975 -0.26280665 -0.16313809
